notebooks/content/cover_mlp_best.pth (torch, 194729 bytes, 6 tensors)

net.0.weight f4 [256, 54]
-0.2902112 0.0051168655 -0.12766029 -0.21202137 -0.24950919 -0.13637505 -0.08301378 -0.03880583
0.09304034 0.9768711 0.036389373 -0.2842421 0.17201768 -0.23574227 0.11966189 -0.04511358
-0.052355565 -0.10882968 0.11784808 0.0019851024 0.07689867 -0.00081118237 0.0653852 0.02874802
-0.124750406 0.091349274 0.02032857 0.06883442 0.10889012 -0.06935833 -0.027720554 -0.13197082
0.015968159 0.007838913 -0.006964929 0.020794217 0.022003757 0.014811583 0.06428865 -0.047037445
0.12679668 -0.027262358 0.12221415 0.0837311 -0.06809525 -0.14215711 -0.031719565 0.08397773
0.11947702 0.070959635 0.18348627 -0.03956923 0.10027201 0.0910971 -0.48727557 0.08921809
-0.18740389 0.11575219 -0.04072893 0.12711623 0.36767855 0.44876942 0.03546494 0.38489735
-0.089947276 0.095126934 0.23917548 -0.338139 0.06205649 0.036933657 -0.07604204 0.0042260736
0.057742123 0.06628113 0.13006775 0.056916825 0.15695974 -0.117336735 -0.08391322 0.022130664
-0.06745771 0.040786155 0.1665683 -0.012024074 -0.054668155 0.07087074 0.07953644 -0.12554961
-0.015440967 0.1511488 -0.13239223 0.052444566 0.049727786 -0.018852996 0.12160709 -0.0056050112
-0.048856195 -0.015975626 0.08949428 0.08351159 0.19654128 0.07139048 0.021823602 0.01182701
0.2050748 0.10658465 -0.0020805509 0.09786728 0.15710343 0.15559399 -0.036498033 -0.21809596
-0.33092403 -0.1826746 -0.111500256 -0.36799854 0.0035885985 -0.013738739 0.24727663 -0.22872815
-0.039269548 -0.13039172 -0.012119336 0.15317616 -0.06957263 0.07080787 -0.06242267 -0.009870045
0.408069 -0.012389436 0.106414944 -0.15585856 0.097732015 0.1664191 -0.30107749 0.0024476633
0.06992372 0.054204356 -0.063588336 0.012094039 0.025890077 0.04773673 -0.018846957 -0.08034133
0.09902161 -0.018331693 0.14285292 0.08831366 -0.014379048 0.2346281 -0.022309426 -0.062778324
0.18041344 0.25708318 -0.05360661 0.015151874 -0.027759295 0.014133385 0.2720584 0.048923954
-0.063666925 -0.037010048 0.47110808 -0.034817584 0.023792312 0.01637108 -0.07361851 0.44412124
-0.03865655 -0.042446148 -0.027310207 1.0602034 0.030359223 -0.3078808 0.056349147 0.25947568
0.15348133 0.13040905 0.1545192 0.028089672 0.16658477 0.08848334 0.1869745 0.05449263
0.14566384 0.0928703 0.054909594 -0.44625118 0.26204878 0.15946046 0.08311787 -0.20352858
0.07409547 -0.10445205 0.033336874 -0.19661956 0.17844898 0.004313879 0.04543207 -0.024494609
0.1861879 -0.015891692 0.0014646212 0.042019166 0.040211666 -0.2939654 -0.00026196707 -0.006621131
0.015051868 -0.009451053 0.0050586457 0.08148613 0.30304304 0.03135677 0.04860664 -0.0484894
-0.4145124 -0.031827513 -0.1590574 0.053808194 0.18901807 0.17969367 -0.27808452 -0.19738717
0.070040256 -0.66050315 0.24492994 0.09823473 -0.11005815 -0.3196502 0.08124183 -0.07154757
-0.0088932095 0.03431619 0.016399382 0.06919032 0.42033738 0.009662139 0.12904549 -0.038383856
0.016310526 0.18671921 0.055503204 0.052839383 0.0994898 0.049642757 0.0821163 0.050113715
-0.028892485 -0.1094416 0.12912607 -0.17113371 -0.020605076 -0.039865747 0.06438577 0.10985948
00000000: 9096 94be 61ab a73b 61b9 02be 211c 59be
00000010: 567f 7fbe e7a5 0bbe 2103 aabd ddf2 1ebd
00000020: ef8b be3d 3914 7a3f 060d 153d 2e88 91be
00000030: 6725 303e 6c66 71be 4b11 f53d 04c9 38bd
00000040: ca72 56bd 18e2 debd 565a f13d 7e18 023b
00000050: 0d7d 9d3d 87a5 54ba ade8 853d f880 eb3c
00000060: 247d ffbd 5415 bb3d 1a88 a63c 0ff9 8c3d
00000070: c901 df3d bd0b 8ebd 3716 e3bc 5c23 07be
00000080: a8cf 823c c96e 003c 0f3a e4bb a258 aa3c
00000090: 3941 b43c 48ac 723c c5a9 833d 56aa 40bd
000000a0: fdd6 013e 4f55 dfbc 6a4b fa3d 367b ab3d
000000b0: 8675 8bbd a291 11be 60ec 01bd 84fc ab3d
000000c0: 5eb0 f43d 4953 913d d3e3 3b3e 5813 22bd
000000d0: 695b cd3d 1e91 ba3d 2f7c f9be f9b7 b63d
000000e0: cee6 3fbe 7c0f ed3d 61d3 26bd c22a 023e
000000f0: 5d40 bc3e 1bc5 e53e af43 113d 4411 c53e
00000100: 4736 b8bd e9d1 c23d 6bea 743e 8e20 adbe
00000110: f22e 7e3d bf47 173d eebb 9bbd e07a 8a3b
00000120: 0183 6c3d 67be 873d 7b30 053e 9e21 693d
00000130: 0eba 203e 3e4e f0bd b2da abbd 5e4b b53c
00000140: 4527 8abd 620f 273d e190 2a3e 9f00 45bc
00000150: b7eb 5fbd ae24 913d 00e4 a23d 1490 00be
00000160: 1cfc 7cbc c0c6 1a3e d491 07be 1dd0 563d
00000170: 5daf 4b3d 9971 9abc 230d f93d 3eaa b7bb
00000180: 6f1d 48bd 51df 82bc c748 b73d 2008 ab3d
00000190: 1e42 493e 2c35 923d 69c7 b23c 13c6 413c
000001a0: 21ff 513e 0e49 da3d da59 08bb a46e c83d
000001b0: b9df 203e 0854 1f3e f67e 15bd 8c54 5fbe
000001c0: e06e a9be 0d0f 3bbe 3f5a e4bd 4e6a bcbe
000001d0: b12e 6b3b 7318 61bc 1636 7d3e b637 6abe
000001e0: 1bd9 20bd 6885 05be 2e90 46bc 36da 1c3e
000001f0: 187c 8ebd b703 913d eaae 7fbd f8b5 21bc
00000200: 6cee d03e 10fd 4abc 14f0 d93d 6399 1fbe
00000210: b927 c83d c569 2a3e d426 9abe fa68 203b
00000220: 2b34 8f3d 6305 5e3d 9a3a 82bd 1326 463c
00000230: 6d17 d43c 9787 433d ef64 9abc ff89 a4bd
00000240: d8cb ca3d 592c 96bc 0948 123e cbdd b43d
00000250: 1996 6bbc 5942 703e 42c2 b6bc ec91 80bd
00000260: 4dbe 383e 68a0 833e 9b92 5bbd 913f 783c
00000270: 7667 e3bc b78f 673c 3d4b 8b3e 7c64 483d
00000280: ce63 82bd d997 17bd 1435 f13e e29c 0ebd
00000290: 18e8 c23c a51c 863c 4dc5 96bd dc63 e33e
000002a0: 5556 1ebd 03dc 2dbd a8b9 dfbc bfb4 873f
000002b0: e8b3 f83c 8da2 9dbe 5dce 663d ffd9 843e
000002c0: 362a 1d3e f389 053e 483a 1e3e 501c e63c
000002d0: 3395 2a3e c136 b53d 3e76 3f3e aa33 5f3d
000002e0: e728 153e c932 be3d e2e8 603d 097b e4be
000002f0: 422b 863e 9a49 233e b439 aa3d cc69 50be
00000300: 5ebf 973d f5ea d5bd 3f8c 083d a356 49be
00000310: 54bb 363e 715b 8d3b fa16 3a3d eba8 c8bc
00000320: 0aa8 3e3e 4b2f 82bc 88f8 bf3a 4a1c 2c3d
00000330: fdb4 243d a282 96be a058 89b9 13f6 d8bb
00000340: 1c9c 763c 97d8 1abc ffc2 a53b 33e2 a63d
00000350: 7528 9b3e f56f 003d c217 473d d29c 46bd
00000360: f83a d4be 915d 02bd f1df 22be fb65 5c3d
00000370: f48d 413e 9e01 383e 1861 8ebe dd1f 4abe
00000380: 4471 8f3d bc16 29bf eace 7a3e 4a2f c93d
00000390: 2b66 e1bd 31a9 a3be 1e62 a63d 8887 92bd
000003a0: d3b4 11bc 228f 0c3d ff57 863c a8b3 8d3d
000003b0: 7636 d73e f34d 1e3c 8024 043e 6438 1dbd
000003c0: a79d 853c 5233 3f3e 5457 633d 1c6e 583d
000003d0: 4fc1 cb3d 3456 4b3d 972c a83d 0a44 4d3d
000003e0: efaf ecbc eb22 e0bd a039 043e ad3d 2fbe
000003f0: facb a8bc 444a 23bd b0dc 833d 02fe e03d

net.0.bias f4 [256]
-0.40031704 -0.6304419 -0.32782584 -0.5018266 -0.42247763 -0.61942786 -0.50789654 -0.35814977
-0.26426587 -0.10511075 -0.6314705 -0.66715544 -0.5002632 -0.61937606 -0.31606 -0.42197147
-0.34959453 -0.54291016 -0.4027659 -0.6954499 -0.29398158 -0.60485005 -0.45185426 -0.456119
-0.36078054 -0.39472127 -0.33929953 -0.17273453 -0.5900202 -0.5947695 -0.07165073 -0.4714059
-0.39874277 -0.34369355 -0.3538877 -0.19642207 -0.24682721 -0.23011443 -0.2695676 -0.2020313
-0.7195244 -0.3627659 -0.58635 -0.09365523 -0.5683004 -0.54184705 -0.39593473 -0.35874417
-0.038056213 -0.3040999 -0.34697664 -0.29957908 -0.421652 -0.33915648 -0.55542123 -0.4182937
-0.7372054 -0.19750583 -0.6091061 -0.44662386 -0.22636932 -0.33685228 -0.2140931 -0.31615564
-0.48130995 -0.36359397 -0.4854724 -0.39296314 -0.6394272 -0.6034221 -0.19310214 -0.49377787
-0.33072636 -0.1683916 -0.31979543 -0.32172933 -0.428459 -0.36594775 -0.16222619 -0.23100571
-0.32579836 -0.2919406 -0.30988777 -0.5858764 -0.35148218 -0.3492036 -0.30014497 -0.5293589
-0.5412308 -0.33364418 -0.395817 -0.20514525 -0.03497654 -0.17572607 -0.756173 -0.26951528
-0.5413278 -0.49704474 -0.49963278 -0.6507612 -0.2674921 -0.45295933 -0.46005443 -0.23644432
-0.47689852 -0.3703979 -0.41421464 -0.44145948 -0.16984372 -0.3665268 -0.20775406 -0.7499731
-0.663475 -0.42330074 -0.51276195 -0.30033922 -0.18344386 -0.4484883 -0.25359175 -0.5225357
-0.37428018 -0.7761383 -0.28118175 -0.40812784 -0.31747276 -0.052590374 -0.11467271 -0.21669699
-0.5873443 -0.30660757 -0.49149552 -0.3507233 -0.24935074 -0.23067228 -0.2187293 -0.55094177
-0.45313323 -0.67049444 -0.34509 -0.50113744 -0.4542981 -0.3325388 -0.73015237 -0.2969674
-0.46496964 -0.05653048 -0.19943479 -0.40767065 -0.23227307 -0.45945844 -0.33056995 -0.40551475
-0.41947678 -0.40129116 -0.37769708 -0.46411633 -0.4982346 -0.5193163 -0.57570285 -0.11870932
-0.5583504 0.009516315 -0.4458904 -0.43730065 -0.27570298 -0.47331095 -0.32325077 -0.34722167
-0.43084446 -0.31103647 -0.3555392 -0.6517722 -0.59981817 -0.38032776 -0.45848542 -0.25795284
-0.07168965 -0.50207436 -0.48677436 -0.53935426 -0.4072552 -0.39805552 -0.5239977 -0.44250703
-0.27129 -0.22324741 -0.20378204 -0.5546585 -0.46713224 -0.61358523 -0.7153681 -0.4233844
-0.6830914 -0.41831037 -0.6202054 -0.2652219 -0.5954912 -0.47907957 -0.16833809 -0.1869863
-0.34278408 -0.23561966 -0.554466 -0.31220382 -0.13166328 -0.020443939 -0.16971724 -0.10804948
-0.37362605 -0.5773873 -0.18203506 -0.5294855 -0.7412117 -0.3864739 -0.27244657 -0.27700225
-0.3741383 0.02702483 -0.57167155 -0.5475106 -0.567659 -0.52161837 -0.8234244 -0.08067084
-0.013667043 -0.3354225 -0.18067315 -0.26951423 -0.58869356 -0.4119796 -0.51975316 -0.29581213
-0.2874845 -0.4249642 -0.4803804 -0.25924903 -0.35346517 -0.5138091 -0.5226295 -0.36662903
-0.3882196 -0.28670692 -0.34111753 -0.4761893 -0.22964047 -0.2594905 -0.23047827 -0.23514223
-0.6290327 -0.21152242 -0.2551341 -0.1420563 -0.28839642 -0.23972599 -0.09039641 -0.18199427
00000000: 5bf6 ccbe a464 21bf cad8 a7be b577 00bf
00000010: fd4e d8be d392 1ebf 8205 02bf 685f b7be
00000020: db4d 87be 4e44 d7bd 0da8 21bf b3ca 2abf
00000030: 4011 00bf 6e8f 1ebf 9ed2 a1be a50c d8be
00000040: 0efe b2be 29fc 0abf 5537 cebe 0109 32bf
00000050: c184 96be 74d7 1abf 7159 e7be 6e88 e9be
00000060: 3ab8 b8be e818 cabe abb8 adbe 52e1 30be
00000070: 900b 17bf d042 18bf 9ebd 92bd 1d5c f1be
00000080: 0328 ccbe 9af8 afbe c530 b5be de22 49be
00000090: 46c0 7cbe 1ea3 6bbe c404 8abe 4be1 4ebe
000000a0: c032 38bf 74bc b9be 091b 16bf 50ce bfbd
000000b0: 237c 11bf 7db6 0abf f5b7 cabe 51ad b7be
000000c0: d5e0 1bbd fbb2 9bbe eca6 b1be 6e62 99be
000000d0: c5e2 d7be eba5 adbe 1630 0ebf 982a d6be
000000e0: 7eb9 3cbf f83e 4abe 61ee 1bbf e2ab e4be
000000f0: 5ccd 67be e777 acbe 393b 5bbe 27df a1be
00000100: 426e f6be fd28 babe d78f f8be 7732 c9be
00000110: 80b1 23bf df79 1abf 91bc 45be 74d0 fcbe
00000120: f754 a9be d96e 2cbe 3abc a3be b5b9 a4be
00000130: fa5e dbbe 815d bbbe 9f1e 26be c38c 6cbe
00000140: 0bcf a6be 3d79 95be 9ca9 9ebe fffb 15bf
00000150: 79f5 b3be d0ca b2be 9aac 99be 1184 07bf
00000160: 1a8e 0abf 69d3 aabe 87a8 cabe 9911 52be
00000170: 8f43 0fbd 89f1 33be 8e94 41bf e8fd 89be
00000180: 7594 0abf a67c febe decf ffbe 4998 26bf
00000190: b9f4 88be 49ea e7be 418c ebbe 761e 72be
000001a0: 0b2c f4be cba4 bdbe f113 d4be fa06 e2be
000001b0: 83eb 2dbe 67a9 bbbe 7bbd 54be 3dfe 3fbf
000001c0: 7fd9 29bf e0ba d8be 5e44 03bf 10c6 99be
000001d0: b5d8 3bbe 42a0 e5be c7d6 81be e6c4 05bf
000001e0: a7a1 bfbe 00b1 46bf 0ef7 8fbe 22f6 d0be
000001f0: ca8b a2be 0169 57bd 87d9 eabd d1e5 5dbe
00000200: 325c 16bf abfb 9cbe 4da5 fbbe 0192 b3be
00000210: cd55 7fbe 5b35 6cbe 93fa 5fbe 850a 0dbf
00000220: 1401 e8be 86a5 2bbf a3af b0be 8b4a 00bf
00000230: c399 e8be 8742 aabe 44eb 3abf 1c0c 98be
00000240: 8010 eebe 818c 67bd a238 4cbe 35ba d0be
00000250: fed8 6dbe 233e ebbe 7740 a9be a19f cfbe
00000260: a9c5 d6be 0976 cdbe 8361 c1be a8a0 edbe
00000270: 9b18 ffbe eaf1 04bf 4361 13bf df1d f3bd
00000280: 0df0 0ebf 51ea 1b3c bf4b e4be dfe5 dfbe
00000290: f128 8dbe d055 f2be 2081 a5be 0ac7 b1be
000002a0: a597 dcbe 2c40 9fbe 3c09 b6be 8bda 26bf
000002b0: af8d 19bf 52ba c2be 9abe eabe 6512 84be
000002c0: 06d2 92bd f287 00bf 7d3a f9be 1f13 0abf
000002d0: c183 d0be efcd cbbe b724 06bf 4890 e2be
000002e0: 86e6 8abe f89a 64be 3dac 50be 19fe 0dbf
000002f0: f52b efbe ec13 1dbf 5d22 37bf d7c5 d8be
00000300: 14df 2ebf c72c d6be c8c5 1ebf 2acb 87be
00000310: 1c72 18bf eb49 f5be d260 2cbe 5679 3fbe
00000320: 6581 afbe 4846 71be 7cf1 0dbf 2ed9 9fbe
00000330: bdd2 06be 0c7a a7bc 5bca 2dbe 0c49 ddbd
00000340: ea4b bfbe a7cf 13bf 6667 3abe 5d8c 07bf
00000350: 0dc0 3dbf e8df c5be 1e7e 8bbe 3dd3 8dbe
00000360: 0e8f bfbe 2d63 dd3c 1159 12bf a829 0cbf
00000370: 1a52 11bf c888 05bf f1cb 52bf c136 a5bd
00000380: bceb 5fbc 7fbc abbe 6202 39be c5fd 89be
00000390: 9fb4 16bf fdee d2be 8b0e 05bf b074 97be
000003a0: 2b31 93be e894 d9be 6bf4 f5be 4abc 84be
000003b0: 63f9 b4be fe88 03bf 0ccb 05bf cdb6 bbbe
000003c0: b8c4 c6be 40cb 92be f5a6 aebe 15cf f3be
000003d0: df26 6bbe f0db 84be 7f02 6cbe 20c9 70be
000003e0: 4908 21bf 5599 58be f0a0 82be 3577 11be
000003f0: b2a8 93be bb7a 75be c121 b9bd b55c 3abe

net.3.weight f4 [128, 256]
0.0725422 -0.4814203 -0.11932505 -0.03441901 0.075465746 -0.038322832 -0.006479051 0.012730628
0.07513006 -0.030844413 -0.4485437 -0.18709505 -0.07003484 -0.03344389 -0.062423937 0.10058328
-0.03974308 -0.012875995 -0.005800511 0.08955192 0.1176661 -0.13142103 0.082345776 -0.098176196
0.04794985 -0.15279175 0.10562552 0.04697771 -0.3110376 0.17544916 -0.03860261 -1.1840006
0.21594642 0.13757849 0.044307344 -0.11285383 0.25674054 -0.56553006 -0.039759677 0.041030306
0.16380215 0.14145744 -0.14243042 0.19305429 -0.22309236 0.04638317 -0.024393767 -0.00042802992
0.039653324 -0.38026822 0.020081531 0.14698365 0.026014794 0.054798923 0.1702571 -0.2898917
0.080933064 -0.019602867 -0.01982785 0.05972316 -0.017441778 -0.03173305 -0.019474735 -0.3161522
-0.14103541 -0.008275758 0.042983152 0.17181511 0.006008647 -0.51705897 0.10551287 -0.62747
-0.009190569 0.03769908 0.096364364 -0.65354323 -0.0730109 0.1384978 -0.00431062 -0.028058674
-0.019203449 -0.07611747 -0.053373523 0.2125659 -0.019977473 0.01938205 -0.17267163 -0.04340737
0.2772697 0.059405506 0.09810974 0.3067353 0.0043186215 -0.14728777 0.18459901 -0.016256653
0.06536642 0.0015259169 0.34279412 -0.10112562 0.015246339 -0.16762306 0.12833385 -0.14940129
0.14817962 -0.17597073 -0.12013033 0.076451205 -0.06264665 -0.032248147 -0.09028641 -0.11038721
0.10355522 -0.69684905 -0.5107504 -0.75381184 0.117385924 0.1916271 0.12536876 0.03351292
-0.30600291 -0.24581291 -0.0004965009 -0.033938956 -0.21802525 0.10012737 0.03973558 -0.069251865
-0.44723332 0.08779307 0.010572015 -0.032905504 0.008015591 -0.8122577 -0.15330654 0.13598
0.0285062 -0.40949938 -0.07790716 -0.06704351 0.04834863 0.35964993 0.10789526 0.07169747
0.023468336 0.008706683 0.14902924 0.43694192 0.07358423 -0.21791081 0.1513138 -0.025216918
-0.32568327 -0.014351324 0.16020833 -0.29057902 0.029126566 -0.11021645 0.06896866 0.105371445
-0.060259752 -0.001969697 0.007688806 0.07095332 0.014780872 0.027353022 -0.0787206 0.03802921
-0.94992644 0.21892577 -0.41504133 0.03652868 -0.0729301 0.031344976 -0.032224122 -0.10845943
-0.766711 0.057283495 -1.2138432 0.12719478 0.1138585 -0.1493996 -0.8470264 -0.37883866
0.06927963 0.34553134 -0.10988505 -0.044337284 0.023683349 -0.19078559 -0.29096472 0.059197813
-0.59909856 0.19314544 -0.38914365 -0.0025362591 -0.41388214 -0.20376833 0.05603419 -0.21857984
-0.21278673 -0.089380644 -0.04163263 0.09390666 0.026146185 -0.53396225 0.09765215 -0.1559886
-0.003122006 -0.4758442 0.13019113 -0.00528144 -0.07872339 -0.014031756 0.12723999 -0.009510419
0.16160156 0.02013677 -0.09535649 -0.1540487 -0.2759084 -0.436421 0.003675781 -0.14183103
0.022161733 0.05576007 -0.24709369 0.030418763 -0.2795886 -0.019828156 0.17745213 -0.16177319
-0.24072888 0.009019671 -0.07119524 -0.044576187 0.185712 -0.22054291 -0.13354585 0.027261466
0.32134327 0.047704257 -0.0955491 -0.22058561 0.2999014 -0.065179065 -0.60962796 0.060602035
-0.4898263 -0.1155585 0.29810002 -0.052878737 0.00034929608 -0.16118522 0.055662625 -0.07872986
00000000: 0191 943d b97c f6be b160 f4bd f3fa 0cbd
00000010: c98d 9a3d 67f8 1cbd 384e d4bb 2094 503c
00000020: cadd 993d 6cad fcbc 85a7 e5be d895 3fbe
00000030: 6d6e 8fbd 76fc 08bd 3eb0 7fbd 9bfe cd3d
00000040: a4c9 22bd d6f5 52bc 3712 bebb ff66 b73d
00000050: edfa f03d 3c93 06be e7a4 a83d 9a10 c9bd
00000060: 1067 443d 7175 1cbe 3152 d83d b36b 403d
00000070: 5240 9fbe f2a8 333e c51d 1ebd 558d 97bf
00000080: 0f21 5d3e 60e1 0c3e 9e7b 353d e91f e7bd
00000090: 7f73 833e 94c6 10bf 0bdb 22bd 650f 283d
000000a0: c0bb 273e 38da 103e 48d9 11be 06b0 453e
000000b0: 5372 64be 47fc 3d3d 70d5 c7bc 3469 e0b9
000000c0: 866b 223d 84b2 c2be 0682 a43c e282 163e
000000d0: fa1c d53c d674 603d e157 2e3e af6c 94be
000000e0: 3cc0 a53d 3196 a0bc 046e a2bc 46a0 743d
000000f0: 0fe2 8ebc 84fa 01bd 7b89 9fbc b3de a1be
00000100: 966b 10be 0b97 07bc 1a0f 303d 4df0 2f3e
00000110: 2fe4 c43b fa5d 04bf 2217 d83d e0a1 20bf
00000120: 0a94 16bc 5a6a 1a3d ae5a c53d 9c4e 27bf
00000130: bd86 95bd 5ed2 0d3e 1a40 8dbb 4edb e5bc
00000140: 8d50 9dbc 7ae3 9bbd 329e 5abd e0aa 593e
00000150: cca7 a3bc 1bc7 9e3c d5d0 30be edcb 31bd
00000160: 4bf6 8d3e 3053 733d c2ed c83d 690c 9d3e
00000170: 3983 8d3b 9bd2 16be 8607 3d3e ac2c 85bc
00000180: d4de 853d 4601 c83a b682 af3e f31a cfbd
00000190: c8cb 793c 61a5 2bbe f369 033e a7fc 18be
000001a0: 66bc 173e ac31 34be e406 f6bd 7392 9c3d
000001b0: e34c 80bd a216 04bd 15e8 b8bd b112 e2bd
000001c0: c214 d43d b364 32bf 8ac0 02bf d0f9 40bf
000001d0: 0868 f03d e539 443e ab60 003e d844 093d
000001e0: 6aac 9cbe 61b6 7bbe 9d27 02ba 9303 0bbd
000001f0: 0342 5fbe 940f cd3d c7c1 223d ecd3 8dbd
00000200: c4fb e4be dacc b33d 3f36 2d3c ecc7 06bd
00000210: d353 033c 1ff0 4fbf 64fc 1cbe 573e 0b3e
00000220: d685 e93c e7a9 d1be ca8d 9fbd 1c4e 89bd
00000230: 3709 463d 0924 b83e 31f8 dc3d 20d6 923d
00000240: ab40 c03c 7aa6 0e3c 1f9b 183e dab6 df3e
00000250: 54b3 963d 0324 5fbe 01f2 1a3e b693 cebc
00000260: f5bf a6be d121 6bbc a70d 243e c6c6 94be
00000270: d69a ee3c 2ab9 e1bd 713f 8d3d fccc d73d
00000280: eed2 76bd 0816 01bb 61f2 fb3b f94f 913d
00000290: 782b 723c 7213 e03c 4438 a1bd 84c4 1b3d
000002a0: 612e 73bf 142e 603e 4c80 d4be 199f 153d
000002b0: 605c 95bd 9763 003d 71fd 03bd fa1f debd
000002c0: 2c47 44bf 19a2 6a3d 375f 9bbf 593f 023e
000002d0: a52e e93d 35fc 18be b9d6 58bf 24f7 c1be
000002e0: 7be2 8d3d 7ce9 b03e 6a0b e1bd 039b 35bd
000002f0: 9503 c23c 4c5d 43be 54f9 94be 6879 723d
00000300: 865e 19bf ebc7 453e d63d c7be 5e37 26bb
00000310: 5ce8 d3be a5a8 50be 1b84 653d 65d3 5fbe
00000320: c4e4 59be 330d b7bd fa86 2abd 2352 c03d
00000330: 8630 d63c c0b1 08bf dafd c73d 7abb 1fbe
00000340: 929a 4cbb daa1 f3be d350 053e ee0f adbb
00000350: bb39 a1bd 73e5 65bc 334b 023e 97d1 1bbc
00000360: e17a 253e def5 a43c 434a c3bd f1be 1dbe
00000370: de43 8dbe 9372 dfbe 5fe5 703b 273c 11be
00000380: 868c b53c ac64 643d 2106 7dbe c530 f93c
00000390: 3d26 8fbe a86e a2bc 03b6 353e dfa7 25be
000003a0: a281 76be 3ec7 133c cfce 91bd 8595 36bd
000003b0: 492b 3e3e 00d6 61be 3ec0 08be 7053 df3c
000003c0: 1b87 a43e 8a65 433d 3faf c3bd 32e1 61be
000003d0: ad8c 993e 9a7c 85bd 9410 1cbf d739 783d
000003e0: 83ca fabe efa9 ecbd 91a0 983e 6097 58bd
000003f0: ba21 b739 bd0d 25be 7efe 633d 1f3d a1bd

net.3.bias f4 [128]
0.1584022 -0.06228017 0.07248424 0.028205616 -0.5119359 0.17326063 0.059369855 0.23660347
0.18279462 0.4487836 -0.08965572 0.29599446 0.21876182 0.20429735 0.2883505 -0.26715556
0.0715946 -0.10333673 0.20893353 0.27635887 0.028097793 0.003453668 0.3782816 0.41498315
-0.064107195 0.23100717 0.08706893 0.30559412 0.3405305 0.06735405 -0.07889292 0.20874992
0.19693786 0.17806856 0.42531443 0.16630499 0.21113682 0.016237047 0.10017425 -0.22767839
0.18770133 0.33140308 -0.11220896 -0.13002932 0.06270376 -0.096651636 0.17556055 -0.01662737
-0.11448428 0.05435484 0.54668844 0.1122525 0.29557312 0.13528308 0.21136187 -0.0056630354
0.2723552 -0.15327546 -0.0049350355 -0.043902863 -0.049127594 0.16837437 0.3257838 0.35056004
0.10757823 -0.23005487 0.07930988 0.16033535 0.01871086 0.28961903 0.12498405 -0.25208634
-0.27870366 0.24879774 0.12495901 -0.098853104 0.28375182 0.13827595 -0.18100993 0.21677054
0.02522367 0.3192303 0.34297463 0.035243906 0.14664818 0.033291664 -0.078543246 0.16819435
0.18062608 0.19551687 0.16629115 0.085670695 0.25972772 0.13311936 0.13663083 0.00078518764
0.22716364 0.51937395 0.14120483 0.29450956 -0.3309587 -0.055470724 0.15948552 0.25505084
0.21667458 0.2190894 0.11103021 0.21877569 0.2773094 0.37742177 0.25186962 0.40981185
0.17267114 0.1073058 -0.23276207 0.011834974 0.13335246 0.1108829 0.27233732 -0.112324774
0.2141766 0.36698806 -0.026987636 -0.09417719 -0.060412604 0.02054116 0.015385045 0.012074935
00000000: 3034 223e 7e19 7fbd 9e72 943d 770f e73c
00000010: 3b0e 03bf 3c6b 313e ce2d 733d 2e48 723e
00000020: 832e 3b3e f7c6 e53e 6b9d b7bd 968c 973e
00000030: 1903 603e 5333 513e ada2 933e 9dc8 88be
00000040: 31a0 923d 35a2 d3bd acf2 553e e97e 8d3e
00000050: 582d e63c ef56 623b 20ae c13e ac78 d43e
00000060: a24a 83bd 258d 6c3e 3251 b23d d576 9c3e
00000070: 045a ae3e ecf0 893d 9c92 a1bd 8ac2 553e
00000080: 14aa 493e 9b57 363e d0c2 d93e db4b 2a3e
00000090: 4034 583e 8e03 853c 2828 cd3d 8624 69be
000000a0: c734 403e aaad a93e d0cd e5bd 6826 05be
000000b0: d46a 803d 4bf1 c5bd 25c6 333e 1f36 88bc
000000c0: bc76 eabd 2ea3 5e3d c6f3 0b3f a4e4 e53d
000000d0: 5c55 973e a687 0a3e 3f6f 583e fc90 b9bb
000000e0: 2472 8b3e 3ef4 1cbe 14b6 a1bb 7dd3 33bd
000000f0: 043a 49bd 556a 2c3e 22cd a63e 9b7c b33e
00000100: fa51 dc3d 8193 6bbe 386d a23d f32e 243e
00000110: 8447 993c f248 943e a3f7 ff3d 7611 81be
00000120: 3fb2 8ebe d6c4 7e3e 82ea ff3d 7f73 cabd
00000130: eb47 913e 3698 0d3e ab5a 39be 19f9 5d3e
00000140: dfa1 ce3c 2772 a33e 5f9a af3e ea5b 103d
00000150: f12a 163e d75c 083d 48db a0bd 243b 2c3e
00000160: 0bf6 383e 9335 483e 3a48 2a3e 1e74 af3d
00000170: 08fb 843e 7150 083e f4e8 0b3e 0dd5 4d3a
00000180: 969d 683e b1f5 043f 0098 103e f5c9 963e
00000190: 6b73 a9be 4535 63bd 2c50 233e 0696 823e
000001a0: f1df 5d3e f958 603e cf63 e33d bc06 603e
000001b0: 7ffb 8d3e 6d3d c13e 0ef5 803e dcd2 d13e
000001c0: b4d0 303e 25c3 db3d 2e59 6ebe 7be7 413c
000001d0: 8c8d 083e 9316 e33d cc6f 8b3e 880a e6bd
000001e0: 1c51 5b3e dce5 bb3e 2d15 ddbc f8df c0bd
000001f0: 3573 77bd ef45 a83c 8e11 7c3c f3d5 453c

net.6.weight f4 [7, 128]
0.3897558 0.008945141 -0.40169767 0.076119475 -0.54878026 0.09924019 0.14324951 -0.47797462
0.030096387 -0.21123616 -1.0131402 0.092797354 0.085115135 0.098959364 0.54628104 -0.17443937
0.2379233 -0.62014455 0.07209266 0.10453441 0.30273286 -0.12258674 -0.002337478 -0.053610224
-0.13119918 0.105354734 0.74234223 0.07466948 0.059457578 -0.84096956 -0.481579 0.096283354
-0.28434715 -0.058946054 0.06395191 0.37162676 -0.24402858 0.115729086 0.20717941 0.41224837
-0.4160734 -0.16729806 -0.6777244 -0.045843516 0.28033176 -0.09408991 -0.12004113 -0.6642905
0.03155798 0.5189229 0.04769783 0.1240428 -0.14030075 0.078264885 0.057655405 0.87318814
-0.46885532 0.44683433 -1.0756657 -0.83482 0.044998296 0.096901625 0.31020412 -0.4991849
0.07641606 0.36948407 0.018220639 -1.0278695 0.48102728 0.12967348 -0.36301476 -0.101291925
-0.16209666 0.010221356 0.03119532 0.24571557 0.033953622 -0.020879962 -0.19122316 0.14886893
-0.74246895 0.10963859 0.033208646 -0.1650642 0.09054902 -0.03102316 -0.05639448 0.6064467
0.5058783 0.053952128 0.08875844 0.27340144 0.106812835 0.07149113 0.12671871 -0.010556786
0.08952372 0.08086582 -0.0118026165 0.13509278 -0.7821162 -0.078951746 0.31330067 0.04117356
-0.69550294 0.038315505 0.12502672 0.46775982 0.028104953 0.09191953 0.10705989 0.056032464
0.09090741 0.10352227 0.019417256 0.10559742 0.32137012 0.26262867 0.12384123 0.3363355
0.082396425 0.03592798 0.019414268 -0.025607549 -0.95850945 -0.02463798 0.28272286 0.090201646
-0.5845008 -0.055673953 0.24773082 0.06509284 0.41604748 -0.28528315 0.050333027 0.08345032
0.06427502 0.3207088 0.3151764 0.032448947 0.09860044 0.13271244 -0.77037406 -0.104845814
-0.53009963 0.34277552 0.06812147 0.106217556 -0.5053538 -0.020574909 -0.0032961871 0.0006182452
-0.29509267 0.11015735 -0.9855442 0.07094718 0.05244954 0.09765643 0.0951068 0.09065445
0.3977737 0.17997122 0.015009913 -0.4985516 0.27676594 -0.17742337 -0.25490552 -0.5798716
0.091363244 -0.035779838 0.06959968 -0.6797049 -0.4888788 -0.10997418 0.10388299 0.14362322
-0.0010758942 -0.6590724 0.04731905 0.12847124 0.009909813 0.089423634 0.074570574 -0.65881336
0.10730413 -0.7145167 0.15857974 0.35528827 -0.17454612 0.08664599 -0.71439904 0.13176647
0.07777688 -0.40311775 0.036424533 0.10590568 -0.5265234 0.053905725 0.43030894 -0.043254264
-0.57445735 0.014272356 0.04256635 -0.97674716 0.08570574 0.101280466 -0.9753302 -0.039557125
0.07369436 0.10296787 0.024640143 0.35575366 0.110159196 -0.010114073 -0.0689062 -0.4559188
-0.66555864 0.06565492 0.07800441 -0.50946635 0.1218368 0.11027011 0.12187766 -0.041339964
0.107775465 0.08831723 0.049861662 0.033047087 0.3893652 0.12573189 -0.735598 0.06928489
0.062635586 0.06856003 -0.36409202 -0.71591896 0.075206295 0.07301047 0.09938899 0.048040453
0.10919364 0.09769029 -0.63375115 0.09187184 -0.90462244 -0.4713824 0.11006148 -0.60358477
0.112393536 0.038312975 -0.066772394 -0.022324102 0.51005596 -0.07059223 0.029644737 -0.07196508
00000000: 128e c73e a48e 123c 51ab cdbe 87e4 9b3d
00000010: dd7c 0cbf 713e cb3d 00b0 123e 17b9 f4be
00000020: b38c f63c 4b4e 58be 94ae 81bf 8a0c be3d
00000030: d850 ae3d 35ab ca3d 13d9 0b3f 3ca0 32be
00000040: 2aa2 733e cbc1 1ebf 51a5 933d 2316 d63d
00000050: cdff 9a3e c20e fbbd 6030 19bb 6596 5bbd
00000060: 1459 06be 39c4 d73d 240a 3e3f 50ec 983d
00000070: ca89 733d c849 57bf 8691 f6be 3530 c53d
00000080: f395 91be 6b71 71bd 38f9 823d dd45 be3e
00000090: a1e2 79be 5f03 ed3d d726 543e 3812 d33e
000000a0: 9307 d5be 2f50 2bbe 597f 2dbf 69c6 3bbd
000000b0: a587 8f3e 36b2 c0bd 20d8 f5bd f10e 2abf
000000c0: f142 013d 22d8 043f cd5e 433d 270a fe3d
000000d0: 00ab 0fbe 5749 a03d 1328 6c3d 4289 5f3f
000000e0: ce0d f0be 78c7 e43e 6aaf 89bf c3b6 55bf
000000f0: 2250 383d 5c74 c63d 13d3 9e3e 2a95 ffbe
00000100: 0680 9c3d 042d bd3e 7343 953c 3a91 83bf
00000110: 3549 f63e 20c9 043e 12dd b9be 2472 cfbd
00000120: abfc 25be 7977 273c 548d ff3c dd9c 7b3e
00000130: f412 0b3d 740c abbc 01d0 43be 1971 183e
00000140: 7212 3ebf 328a e03d ca05 083d 9706 29be
00000150: c471 b93d 4824 febc e6fd 66bd 1740 1b3f
00000160: 3e81 013f e8fc 5c3d fcc6 b53d 46fb 8b3e
00000170: b0c0 da3d f169 923d 8dc2 013e 5ff6 2cbc
00000180: 3658 b73d fb9c a53d c35f 41bc c355 0a3e
00000190: c438 48bf 74b1 a1bd f268 a03e 9ba5 283d
000001a0: 7b0c 32bf b8f0 1c3d 0107 003e 377e ef3e
000001b0: 5c3c e63c 4e40 bc3d 3742 db3d 4c82 653d
000001c0: aa2d ba3d 7c03 d43d f010 9f3c 7643 d83d
000001d0: a08a a43e 4477 863e 79a0 fd3d 2b34 ac3e
000001e0: 75bf a83d 3829 133d ac0a 9f3c ecc6 d1bc
000001f0: e060 75bf 97d5 c9bc 0dc1 903e a4bb b83d
00000200: d8a1 15bf 5f0a 64bd 26ad 7d3e 654f 853d
00000210: 2d04 d53e a210 92be 012a 4e3d 00e8 aa3d
00000220: 9fa2 833d f233 a43e cd5e a13e 30e9 043d
00000230: 07ef c93d c5e5 073e 3c37 45bf 67b9 d6bd
00000240: 9cb4 07bf 4680 af3e 4583 8b3d 9788 d93d
00000250: de5e 01bf b68c a8bc d804 58bb bc11 223a
00000260: 6316 97be 2d9a e13d a04c 7cbf c14c 913d
00000270: 54d5 563d 1800 c83d 5bc7 c23d 0aa9 b93d
00000280: ffa8 cb3e 604a 383e 23ec 753c 2842 ffbe
00000290: 44b4 8d3e 79ae 35be fa82 82be 7772 14bf
000002a0: a71c bb3d e18d 12bd 478a 8e3d 2401 2ebf
000002b0: 524e fabe 253a e1bd 9bc0 d43d f711 133e
000002c0: 0505 8dba f8b8 28bf 9fd1 413d f78d 033e
000002d0: c55c 223c bd23 b73d 75b8 983d fea7 28bf
000002e0: 45c2 db3d 91ea 36bf ba62 223e 58e8 b53e
000002f0: 38bc 32be 7473 b13d dbe2 36bf caed 063e
00000300: 7c49 9f3d 7365 cebe e431 153d 14e5 d83d
00000310: 3dca 06bf 40cc 5c3d 7451 dc3e 622b 31bd
00000320: a30f 13bf 9ad6 693c 0e5a 2e3d 1a0c 7abf
00000330: 7e86 af3d 226c cf3d 3daf 79bf a706 22bd
00000340: 12ed 963d d2e0 d23d 20da c93c 5825 b63e
00000350: 259b e13d 7fb5 25bc b21e 8dbd 306e e9be
00000360: 0d62 2abf 1676 863d c7c0 9f3d 636c 02bf
00000370: 9285 f93d 4cd5 e13d ff9a f93d 1854 29bd
00000380: 62b9 dc3d aadf b43d be3b 4c3d 625c 073d
00000390: e05a c73e dcbf 003e 2750 3cbf 3de5 8d3d
000003a0: 1647 803d 3369 8c3d 456a babe 7746 37bf
000003b0: c205 9a3d 8386 953d 748c cb3d 11c6 443d
000003c0: eaa0 df3d d911 c83d 843d 22bf 4e27 bc3d
000003d0: 5695 67bf 0959 f1be ea67 e13d 8884 1abf
000003e0: 952e e63d 11ee 1c3d f7bf 88bd 09e1 b6bc
000003f0: 0793 023f a992 90bd 85d9 f23c 6e62 93bd

net.6.bias f4 [7]
-0.044734348 0.099210575 0.12910987 -0.10914788 -0.08794872 0.14492385 -0.1510397
00000000: 5d3b 37bd ea2e cb3d 6135 043e ec88 dfbd
00000010: 751e b4bd eb66 143e 27aa 1abe
